actor.pt (torch, 270167 bytes, 5 tensors)

linear1.weight f4 [256, 3]
0	0xc0023c72	-2.0349393
1	0x3f3655f4	0.71224904
2	0x3dd67a88	0.1047259
3	0xbf1b6fd4	-0.6071751
4	0x3e9466b8	0.28984618
5	0xbec023b7	-0.37527248
6	0x3ea9fe45	0.33201805
7	0xbc9b71c8	-0.018975154
8	0x3bab429c	0.0052264463
9	0x3ea7443d	0.3266925
10	0x3e93b682	0.2885018
11	0x3b469956	0.0030303798
12	0x3fae21b8	1.360404
13	0xbfe56e4c	-1.7924285
14	0x3e75eb25	0.24015482
15	0xbfc85f60	-1.5654106
16	0x3f10a596	0.56502664
17	0x3abbdea8	0.0014333325
18	0x3f088a08	0.5333562
19	0xbcfe95b2	-0.03107724
20	0xbbb6d098	-0.0055790655
21	0xbfaf3787	-1.3688821
22	0x3f9bcca1	1.2171823
23	0x3e4781f7	0.19483171
24	0xbec8ca25	-0.39216724
25	0xbe9de0a2	-0.30835444
26	0x3a0776eb	0.00051675615
27	0x3f529cf0	0.8227072
28	0x400454d2	2.067677
29	0xbe15e88d	-0.14639492
30	0xbf8157b9	-1.0104896
31	0xbf96777f	-1.1755217
32	0xbe5658e8	-0.20932353
33	0x3d96828a	0.07349117
34	0x3ec78cf2	0.3897472
35	0x39016aec	0.0001234223
36	0xbe961d10	-0.29319048
37	0xbeb59cd9	-0.35471228
38	0x3c54003f	0.012939512
39	0xbed757f3	-0.42059287
40	0x3faaf40c	1.3355727
41	0x3dcea9cc	0.1009098
42	0x3ead2cb9	0.33823183
43	0x3edc8b3c	0.43074977
44	0x3b98533e	0.004648595
45	0x3ec311df	0.38099572
46	0x3f5e853e	0.8692206
47	0x3e4693cd	0.19392319
48	0xbf3fda77	-0.74942726
49	0x3e162ad6	0.14664778
50	0xb99aa9bc	-0.0002949963
51	0x3f9bdb44	1.217629
52	0x3f64fec7	0.8945126
53	0xbdee1fdc	-0.116271704
54	0xbd6c9ebe	-0.057768576
55	0xbe98bf02	-0.29833227
56	0x3c84320b	0.016137144
57	0x3de260b4	0.11053601
58	0xbe3605ac	-0.17775601
59	0x3bed2c32	0.0072379345
60	0xbf585d85	-0.845177
61	0x3f1ecda7	0.6203255
62	0xbe4b3854	-0.19845706
63	0x3f298dad	0.66231805
64	0x3f64a5b0	0.8931532
65	0xbd2edfa0	-0.042693734
66	0x3f19b657	0.60043854
67	0xbfa20c95	-1.266009
68	0x3e11acf6	0.14226136
69	0xbfa0175c	-1.2507129
70	0xbfa5af91	-1.2944204
71	0x3dc0a8b5	0.09407178
72	0x3e8cc7eb	0.27496275
73	0x3e5a7b4f	0.21336101
74	0xbd0de129	-0.034638558
75	0xc001903b	-2.0244281
76	0x3f747dc0	0.9550438
77	0xbdad0dc5	-0.08449892
78	0x3f1e6c60	0.6188412
79	0x3e5ab21f	0.2135701
80	0xb907baa7	-0.00012944137
81	0x3e663b9b	0.22483675
82	0xbe9bd5a0	-0.3043642
83	0x3c7c3f66	0.015395975
84	0xbff7f16d	-1.9370552
85	0x3f789252	0.9709827
86	0x3d8a03fe	0.06739043
87	0xbf06d423	-0.52667445
88	0x3ef74f6f	0.4830279
89	0x3c010d1a	0.007876659
90	0xbf8a6735	-1.0812746
91	0xbf340405	-0.70318633
92	0x3b014013	0.001972203
93	0xbf01017d	-0.50392896
94	0x3ec92188	0.39283395
95	0xb95dfbf0	-0.00021170056
96	0x3e22c37f	0.15894888
97	0x3e339994	0.17539054
98	0xbbaa91a9	-0.0052053523
99	0x3af39d2c	0.001858627
100	0xbd0b7b40	-0.034053087
101	0xbc8b3477	-0.01699279
102	0x3f994231	1.1973325
103	0xc0012835	-2.018079
104	0x3d67c781	0.056586746
105	0x3f61743b	0.8806798
106	0xbf7b9c6d	-0.9828556
107	0xbbc38629	-0.005966921
108	0x3fdda2a9	1.7315265
109	0xbf881b38	-1.0633307
110	0xbebde658	-0.370898
111	0x3f59abb8	0.85027647
112	0xbb960c47	-0.0045791003
113	0xba26f29d	-0.00063685497
114	0xbf2d64e6	-0.67732084
115	0xbe71fef9	-0.2363242
116	0x3b9528ee	0.0045519983
117	0xbed60db7	-0.4180734
118	0xbfa9b847	-1.3259362
119	0xbe4a6d09	-0.19768156
120	0xbd79eab7	-0.061014857
121	0x3f30c4e8	0.69050455
122	0x3b9df6df	0.004820689
123	0x3f5b0d04	0.85566735
124	0xbfa1659d	-1.2609135
125	0xbed02f26	-0.4066097
126	0xbe0c33a0	-0.13691568
127	0xbf4a2aca	-0.7897154
128	0x3bb446f4	0.0055016223
129	0xbeabf47c	-0.33584964
130	0x3e99e31d	0.30056086
131	0xbb20cd0a	-0.0024536275
132	0xbf8bd729	-1.0925037
133	0x3f19ddd5	0.60104114
134	0xbea76b32	-0.3269897
135	0x3d351aca	0.044215
136	0x3e1aec02	0.15129092
137	0xbd33f918	-0.043938726
138	0xbf64ac40	-0.8932533
139	0xbfed12dd	-1.8521382
140	0xbef5f483	-0.4803811
141	0xbf179948	-0.59218264
142	0x3f41a60b	0.75643986
143	0xbdb70ad0	-0.08937609
144	0x3f61a32a	0.88139594
145	0xbe94db0e	-0.29073375
146	0x3c7e0a92	0.01550545
147	0x3ee3cfc8	0.44494462
148	0x3f88261a	1.0636628
149	0x3e772fd0	0.24139333
150	0xbff47d27	-1.9100693
151	0x3f9852e2	1.1900294
152	0x3e609360	0.21931219
153	0xbe9617c7	-0.29315016
154	0x3e48b073	0.1959856
155	0xbc770b2d	-0.015078348
156	0xbdc06ed5	-0.093961395
157	0xbdf1c002	-0.11804201
158	0xbc191a33	-0.009344625
159	0xbfc3d8d4	-1.5300546
160	0x3f3c0f5b	0.7346093
161	0xbd6adc3a	-0.05733893
162	0xbe68aaa6	-0.22721347
163	0x3e63dd96	0.22252497
164	0x3b651285	0.0034953665
165	0xbc91c5f8	-0.017794594
166	0x3cdcf8b7	0.026974065
167	0xbc250a17	-0.010073206
168	0xbf137cd4	-0.5761235
169	0xbf877995	-1.0583979
170	0xbcdd02c8	-0.026978865
171	0xbf5adcca	-0.8549315
172	0x3f0cc9e5	0.54995567
173	0x3e33fcc0	0.17576885
174	0x3f319e10	0.6938181
175	0xbee0e28c	-0.43922842
176	0xbe868f22	-0.26281077
177	0xbf1ac39a	-0.60454714
178	0x3f5ff042	0.8747598
179	0x3e3b861a	0.18312874
180	0x3ddb959a	0.107218936
181	0xbef7507d	-0.48303595
182	0x3d486eea	0.0489339
183	0x3f86c47c	1.0528712
184	0xbf8c0f7a	-1.0942223
185	0xbcd2c5d8	-0.025729105
186	0xbe9bf5f5	-0.30461088
187	0x3f3d9b1f	0.7406482
188	0xbe70ecf0	-0.23527884
189	0x3f3adc8d	0.72992784
190	0xbec3625d	-0.38160983
191	0x38b700fe	8.726305e-05
192	0xbee18e34	-0.44053805
193	0x3e0bfc4c	0.13670462
194	0x3bac2657	0.005253594
195	0x3d856bf7	0.06514733
196	0xbd0d7cd6	-0.03454288
197	0xba13cc46	-0.0005638044
198	0xbff129df	-1.8840903
199	0x3f859566	1.0436218
200	0x3ed4c2a0	0.41554737
201	0xbd751cbc	-0.059841856
202	0xbe3691d7	-0.17829071
203	0xbc6041da	-0.013687575
204	0xbd397516	-0.045277677
205	0xbe58088f	-0.21097015
206	0xbbf5143a	-0.007479218
207	0x3f158e02	0.5841981
208	0x3d8ce8b4	0.06880322
209	0xbc3013e1	-0.010746927
210	0xbf487ea7	-0.78318256
211	0x3bf34284	0.0074237008
212	0x3be4b48e	0.0069795316
213	0x3f73668c	0.9507835
214	0xbfaaf50f	-1.3356036
215	0xbe57f2cd	-0.21088715
216	0x3e4f13e1	0.20222427
217	0xbff75f2a	-1.9325917
218	0x3e60ad17	0.21941029
219	0x3eace31b	0.33767018
220	0xbe4660ce	-0.19372866
221	0x37080501	8.107397e-06
222	0x3e668754	0.22512561
223	0xbfdfac3a	-1.7474434
224	0xbc62cc0f	-0.013842597
225	0xbfa2aa03	-1.2708133
226	0x3ea6a10b	0.3254474
227	0x3e13a979	0.14420117
228	0xbf75fe88	-0.9609151
229	0xbf6e18d1	-0.93006617
230	0x3d18fded	0.037351537
231	0xbf9af4f6	-1.2106006
232	0x3f1fe359	0.6245628
233	0xbd6ecdb6	-0.05830165
234	0x3f9a6ba9	1.2064105
235	0x3f377b2c	0.7167232
236	0x37ec46f8	2.816644e-05
237	0x3f677a44	0.9042094
238	0x3f42353d	0.75862485
239	0xbdf073d5	-0.11740843
240	0xbe014e82	-0.12627605
241	0x3ecc955e	0.39957708
242	0xb9fd3a58	-0.0004829939
243	0x3f09d34d	0.53838044
244	0xbf9e939f	-1.23888
245	0xbe13ed6b	-0.14446037
246	0x3e0d17df	0.13778637
247	0xbe877ec8	-0.26463914
248	0x3b88039d	0.0041508214
249	0x3e7ad00c	0.24493426
250	0x3fd91118	1.6958342
251	0xbe8b95f2	-0.27262837
252	0xbd157352	-0.03648693
253	0x3cf44810	0.029819518
254	0x3b2d79ce	0.0026470306
255	0xbfaa9939	-1.332801

linear1.bias f4 [256]
0	0xbef0e8c3	-0.47052583
1	0xbf4c4e51	-0.79807
2	0xbfa9bc96	-1.3260677
3	0xbf1684f6	-0.5879663
4	0xbf7619c8	-0.9613309
5	0xbed5557f	-0.4166679
6	0xbf571414	-0.8401501
7	0xbf8847e0	-1.0646935
8	0xbf27499f	-0.6534671
9	0xbf9c6641	-1.2218705
10	0xbf167332	-0.58769524
11	0xbf254ec1	-0.64573294
12	0xbf80e581	-1.0070039
13	0xbf8965d1	-1.0734197
14	0xbf2a3e24	-0.6650107
15	0xbf363f64	-0.71190476
16	0xbf4c78ad	-0.79871637
17	0xbf0dfc38	-0.5546298
18	0xbfa68ec7	-1.3012322
19	0xbf0738d7	-0.52821106
20	0xbf857045	-1.0424887
21	0xbf5ca7ec	-0.8619373
22	0xbfaccd26	-1.3500106
23	0xbdd7e77c	-0.10542199
24	0xbf8ad692	-1.0846732
25	0xbf6e9d24	-0.9320853
26	0xbf2ad3f3	-0.6672966
27	0xbf6b9dfe	-0.9203795
28	0xbf6824ff	-0.9068145
29	0xbf857816	-1.0427272
30	0xbfbe79d1	-1.4880925
31	0xbf2a73c0	-0.6658287
32	0xbebfd151	-0.37464383
33	0xbf059763	-0.5218412
34	0xbf664e25	-0.8996299
35	0xbef3ca33	-0.47615203
36	0xbf3dfb7d	-0.74211866
37	0xbf632157	-0.8872275
38	0xbf817bdf	-1.0115927
39	0xbfb7ac96	-1.4349544
40	0xbf565a61	-0.8373166
41	0x3e2270d0	0.15863347
42	0xbf84177a	-1.0319664
43	0xbf0990a5	-0.53736335
44	0xbfcfa2e4	-1.6221585
45	0xbfb3a3ee	-1.4034402
46	0xbf2d60ca	-0.67725813
47	0x3ed02515	0.4065329
48	0xbfad0e8e	-1.3520067
49	0xbf72494a	-0.9464308
50	0xbfa2e0cd	-1.2724854
51	0xbf34b5db	-0.7058999
52	0xbf29e17c	-0.66359687
53	0xbf3a47ed	-0.72766
54	0xbedd5798	-0.4323089
55	0xbea93332	-0.3304687
56	0xbdd9745a	-0.106178954
57	0xbf2641d3	-0.6494419
58	0xbf595f4e	-0.8491105
59	0xbf7fade7	-0.9987473
60	0xbfdc96be	-1.7233503
61	0xbf215533	-0.6302063
62	0xbf4e974b	-0.80699605
63	0xbf5508d2	-0.83216584
64	0xbf2a600d	-0.6655281
65	0xbea33223	-0.3187419
66	0xbf81bd52	-1.0135901
67	0xbf13d82a	-0.57751715
68	0xbed4445f	-0.41458413
69	0xbf6e9d76	-0.93209016
70	0xbf84766a	-1.0348637
71	0xbf852580	-1.0402069
72	0xbf799bda	-0.97503436
73	0xbec9818d	-0.39356652
74	0xbd5b0501	-0.05347157
75	0xbfa3f80a	-1.281007
76	0xbe8bd56f	-0.27311274
77	0xbf1eef3a	-0.6208378
78	0xbfb3f1d3	-1.4058174
79	0xbf0ad014	-0.5422375
80	0xbf1c4dfd	-0.610565
81	0x3da2c64d	0.07947979
82	0xbeff82f7	-0.49904606
83	0xbf1141bc	-0.5674093
84	0xbe718dcf	-0.23589252
85	0xbfbf0775	-1.4924151
86	0xbf15ea1a	-0.58560336
87	0xbeb4d0f8	-0.3531568
88	0xbf5240c3	-0.8213007
89	0xbf8ee1d5	-1.1162668
90	0xbf4f89b2	-0.8106948
91	0xbfa8270c	-1.3136916
92	0xbf4f5031	-0.8098174
93	0xbf44fd79	-0.7694927
94	0xbf55766a	-0.8338381
95	0xbfa4cef2	-1.2875655
96	0xbf6332e5	-0.88749534
97	0xbf85f9fb	-1.0466913
98	0xbf86ea81	-1.0540315
99	0xbf903570	-1.1266308
100	0xbfde77f6	-1.7380359
101	0xbe5f2013	-0.21789579
102	0xbf3e2377	-0.74272865
103	0xbdeff71d	-0.11717055
104	0xbece6353	-0.40310153
105	0xbf86fe5f	-1.0546378
106	0xbf277622	-0.6541463
107	0xbea4d93c	-0.32196987
108	0xbf562c47	-0.8366131
109	0xbf20668b	-0.6265647
110	0xbe84e8de	-0.25958914
111	0xbebb7797	-0.36614677
112	0xbdfaf6d6	-0.122541115
113	0xbf8a6920	-1.0813332
114	0xbe86ccea	-0.26328212
115	0xbeb08c2c	-0.34481943
116	0xbf2214bb	-0.6331288
117	0xbfcb2e15	-1.5873438
118	0xbfaae7bb	-1.3351969
119	0xbf073ff1	-0.5283194
120	0xbf029c17	-0.51019424
121	0xbf9dcccb	-1.2328123
122	0xbf2a30b8	-0.6648059
123	0xbf8ae8fa	-1.0852349
124	0xbf4bbd68	-0.79585886
125	0xbf962879	-1.1731101
126	0xbe972cf0	-0.29526472
127	0xbfa1f0db	-1.2651628
128	0xbfbbf393	-1.4683708
129	0xbf29dea4	-0.6635535
130	0xbf85ac2c	-1.0443168
131	0xbf14a518	-0.58064413
132	0xbf9298d0	-1.1452885
133	0xbf643c98	-0.8915496
134	0xbeafa040	-0.3430195
135	0xbf1c01f7	-0.609405
136	0xbf033456	-0.51251733
137	0xbfa218ff	-1.2663878
138	0xbf60a409	-0.877503
139	0xbf8ba9f5	-1.0911242
140	0xbf45005e	-0.76953685
141	0xbf6b5653	-0.91928595
142	0xbf69b7cb	-0.9129607
143	0xbf426239	-0.75931126
144	0xbf9c9a1e	-1.2234533
145	0xbfa74bd8	-1.3070021
146	0xbec1401a	-0.37744218
147	0xbf711bf0	-0.94183254
148	0xbf0e4206	-0.55569494
149	0xbee2df89	-0.4431117
150	0xbf80e8d7	-1.0071057
151	0xbfed9ab4	-1.8562837
152	0xbf13994d	-0.57655793
153	0xbe726db4	-0.23674661
154	0xbf7ba647	-0.98300594
155	0xbf71a814	-0.9439709
156	0xbf0c1ed4	-0.5473454
157	0xbf758aa1	-0.95914656
158	0xbf4ab387	-0.79180187
159	0xbec9eb52	-0.39437348
160	0xbe8d5a03	-0.27607736
161	0xbfbe58b9	-1.4870826
162	0xbf690c0e	-0.9103402
163	0xbf92a6d9	-1.1457168
164	0xbf60f586	-0.8787464
165	0xbf0b5b34	-0.5443604
166	0xbf72cee0	-0.94846916
167	0xbf568e9f	-0.8381137
168	0xbecfb048	-0.4056418
169	0xbf308761	-0.6895657
170	0xbfa0c3a6	-1.2559707
171	0xbee51e61	-0.4474974
172	0xbf896510	-1.0733967
173	0xbf127228	-0.5720544
174	0xbf831595	-1.0240961
175	0xbf8a6952	-1.0813391
176	0xbf8d81b1	-1.1055204
177	0xbf4fdef1	-0.81199557
178	0xbf6c6067	-0.923346
179	0xbfada0e8	-1.356473
180	0xbe8f62b6	-0.28004998
181	0xbf93b00f	-1.1538104
182	0xbffbc86f	-1.9670542
183	0xbfb6f1f9	-1.4292594
184	0xbe87d07c	-0.26526248
185	0xbd19955b	-0.037495952
186	0xbf04eef7	-0.5192713
187	0xbf442ed6	-0.76633966
188	0xbff3489a	-1.9006531
189	0xbf582a35	-0.844394
190	0xbe6ba6cc	-0.23012847
191	0xbf689790	-0.90856266
192	0xbff254e6	-1.8932159
193	0xbf4ee022	-0.8081075
194	0xbf2b986f	-0.6702947
195	0xbf8d0c6d	-1.1019417
196	0xbf6b1d0e	-0.9184121
197	0xbf01ee3d	-0.5075415
198	0xbef47929	-0.47748688
199	0xbf75fa9a	-0.9608551
200	0xbf453b1d	-0.77043325
201	0xbf1829ac	-0.59438586
202	0xbf2992b2	-0.66239464
203	0xbf474b03	-0.77848834
204	0xbfaee846	-1.3664634
205	0xbfa49629	-1.2858325
206	0xbf2bf445	-0.671696
207	0xbe91c4fd	-0.28470603
208	0x3e6d50db	0.23175375
209	0xbf595c8d	-0.84906846
210	0xbf8549c3	-1.0413135
211	0xbf5f7057	-0.8728079
212	0xbf580d04	-0.8439486
213	0xbfb89e55	-1.4423319
214	0xbf70bedf	-0.94041246
215	0xbfcb8346	-1.5899436
216	0xbe75a7e8	-0.23989832
217	0xbf69f8e6	-0.91395414
218	0xbedd5f2c	-0.43236673
219	0xbf240d60	-0.6408291
220	0xbf629beb	-0.8851916
221	0xbe28ff0d	-0.16503544
222	0xbfbba7ef	-1.4660624
223	0xbf893d06	-1.0721748
224	0xbf04b880	-0.51844025
225	0xbf3ed412	-0.74542344
226	0xbf813b75	-1.009627
227	0xbe632525	-0.22182138
228	0xbf1d6321	-0.61479384
229	0xbe66453c	-0.22487348
230	0xbfcc1356	-1.5943401
231	0xbf39958c	-0.72493815
232	0x3e7c9f24	0.24670082
233	0xbf7f4b96	-0.9972471
234	0xbf28b407	-0.658997
235	0xbf3ddc06	-0.74163854
236	0xbed902d5	-0.42384973
237	0xbf9fbe43	-1.2479938
238	0x3d86f809	0.06590278
239	0xbf882796	-1.0637081
240	0xbf83de8b	-1.030229
241	0x3e61844c	0.22023124
242	0xbe4c5200	-0.19953156
243	0xbefacbcc	-0.4898361
244	0xbf8498c9	-1.0359126
245	0xbf69fdff	-0.9140319
246	0xbeb43b0d	-0.35201302
247	0xbface2fb	-1.3506769
248	0xbf98bb7a	-1.1932213
249	0xbe8d305d	-0.2757596
250	0xbf09628a	-0.53665984
251	0xbf8c5fa5	-1.0966688
252	0xbf07f386	-0.5310596
253	0xbf79a04c	-0.9751022
254	0xbe76e1ad	-0.24109526
255	0xbf3f3814	-0.74694943

linear2.weight f4 [256, 256]
0	0xbd47ce22	-0.048780568
1	0x3c8ff971	0.017574998
2	0xbcd3a086	-0.02583338
3	0xbcc01f79	-0.023452507
4	0x3d7c24be	0.061558478
5	0xbd09d609	-0.033651385
6	0x3b97f1fa	0.004637
7	0x3d9708df	0.07374739
8	0xbd5262d3	-0.051363777
9	0xbd24a796	-0.040198885
10	0xbd76941f	-0.060199853
11	0x3c374a90	0.011187211
12	0xbc384c26	-0.011248624
13	0xbdbe6164	-0.092959195
14	0x3cb61daa	0.022230942
15	0x3cd6154c	0.026133202
16	0x3ca5077c	0.02014517
17	0xbe29b62e	-0.16573402
18	0xbd464b8f	-0.048411902
19	0x3bad60aa	0.0052910643
20	0x3ccf5518	0.02530913
21	0x3d14fe6a	0.03637544
22	0xbde3c8ba	-0.1112227
23	0xbda897e8	-0.08232099
24	0x3c7220e9	0.014778354
25	0xbd79aa31	-0.060953323
26	0xbd2a3328	-0.041552693
27	0x3d101a83	0.035181534
28	0x3d362da6	0.044477127
29	0x3d1f7829	0.038932953
30	0xbd74f8f3	-0.05980773
31	0xbd03169e	-0.03200399
32	0xbdc07426	-0.093971536
33	0xbc8603cc	-0.016359232
34	0x3bd0cb01	0.006371856
35	0xbca05546	-0.019571912
36	0x3d56a7b0	0.052406013
37	0xbdb8df35	-0.09026948
38	0x3c64bcf6	0.013961067
39	0xbd5e6e51	-0.054304425
40	0xbba4e5e0	-0.005032286
41	0xbc55c689	-0.013047823
42	0xbd0935b0	-0.033498466
43	0x3d1365c0	0.03598571
44	0xbcbee4ec	-0.023302518
45	0xbcdac838	-0.0267068
46	0xbcf5aee8	-0.029990628
47	0xbce13274	-0.027489878
48	0xbcaaf820	-0.020870268
49	0x3c23d23c	0.009998854
50	0xbcabde46	-0.020980012
51	0x3c40b139	0.011761003
52	0xbbdf3a25	-0.0068123513
53	0xbd33ae88	-0.043867618
54	0x3c8c2dff	0.017111776
55	0xbd7905e2	-0.060796626
56	0xbd67ea9e	-0.056620233
57	0xbda9905d	-0.08279488
58	0x3e2e3c24	0.1701513
59	0xbdc310ff	-0.09524726
60	0xbd23e14f	-0.040009793
61	0x3be77600	0.0070636272
62	0x3ddd3e8d	0.10802946
63	0xbdc28d7e	-0.09499644
64	0xbd39734f	-0.045275982
65	0xbd3fe8c0	-0.046852827
66	0xbd3a6dcd	-0.04551487
67	0xbd1f4cb6	-0.038891517
68	0xbd7e0db7	-0.0620248
69	0xbcac43b3	-0.021028375
70	0xbcf08162	-0.02935857
71	0xbb753e05	-0.0037421
72	0xbd1b30df	-0.037888404
73	0x3cdf7fe5	0.027282665
74	0xbcdbd9fa	-0.026837338
75	0xbb9c4704	-0.004769208
76	0x3d01b0f8	0.03166291
77	0xbaaa33e4	-0.0012985435
78	0x3d4dbcc8	0.050228864
79	0xbd03f612	-0.032217093
80	0xbc29be91	-0.010360376
81	0xbd008ab5	-0.03138228
82	0xbd7d6a00	-0.061868668
83	0xbd5b422a	-0.053529896
84	0x3c47a3a0	0.012185007
85	0xbc6c142f	-0.014409109
86	0x3d931251	0.07181228
87	0xbdb5bb0b	-0.08873566
88	0xbdb9f695	-0.09080235
89	0xbc3b8a10	-0.011446491
90	0x3bf0b80c	0.007346159
91	0x3bbbd265	0.005731868
92	0xbcb7aeeb	-0.022422275
93	0xbc81c3c0	-0.015840411
94	0x3d1a7ba4	0.03771557
95	0xbcff28e7	-0.031147433
96	0x3c796b60	0.015223354
97	0x3bd39ccb	0.0064579
98	0xbda1c110	-0.07898152
99	0x3c4fad01	0.012675525
100	0x3cad2454	0.021135487
101	0xbd0b4515	-0.03400143
102	0xbd031e3f	-0.032011267
103	0xbcaecfe3	-0.021339362
104	0x3d3a8ea9	0.045546208
105	0xbd84235d	-0.064520575
106	0xbcf4e3e7	-0.029893829
107	0x3c85fc82	0.016355757
108	0x3c6642a2	0.014053972
109	0x3d0cc392	0.034366198
110	0xbd295935	-0.04134484
111	0x3d7d12cc	0.061785504
112	0xbe198884	-0.14993483
113	0xbc026850	-0.00795944
114	0xbcf5dbac	-0.030011974
115	0xbdb948be	-0.090470776
116	0xbcf33528	-0.029688433
117	0xbb9f0a5b	-0.0048535294
118	0xbe2b11a6	-0.16705951
119	0x3c56ebf5	0.01311778
120	0xbde81cde	-0.11333631
121	0xbccc5940	-0.024944901
122	0xbb8c3ead	-0.0042799325
123	0xbd1ad150	-0.037797272
124	0xbd038b9e	-0.03211557
125	0xbe784bb8	-0.24247634
126	0x3d10799b	0.035272222
127	0x3ccdd636	0.025126558
128	0xbd945799	-0.072432704
129	0xbd8087d9	-0.06275911
130	0x3c77bbdd	0.015120474
131	0xbd988716	-0.074476406
132	0xbbfd50cb	-0.0077305785
133	0xbcbe767c	-0.023249857
134	0x3d4dd780	0.050254345
135	0x3cda528d	0.026650691
136	0xbda0560a	-0.07828911
137	0x3c1175a1	0.008878143
138	0xbb93e0fb	-0.0045129037
139	0xbd29dbba	-0.041469313
140	0x3c8b7087	0.01702143
141	0x3d1d44ec	0.038395807
142	0xbc1cadb4	-0.009562898
143	0xbd6f0575	-0.058354814
144	0xbd74877c	-0.05969952
145	0xbcb26d51	-0.021780642
146	0xbd9e079a	-0.07716294
147	0x3ceaea2e	0.028676119
148	0x3bb48668	0.0055091865
149	0xbc7e3862	-0.015516372
150	0xbd82be46	-0.06383948
151	0x3caf21a9	0.021378355
152	0x3c122998	0.00892105
153	0x3c94d0f0	0.018166035
154	0xbbd875e9	-0.006605853
155	0x3c883bc7	0.016630067
156	0x3d10e1a4	0.035371438
157	0x3b175441	0.002309099
158	0xbe3ea128	-0.18616164
159	0xbc8a419e	-0.016876992
160	0x3b44fc84	0.0030057738
161	0x3d3c6c9e	0.046002023
162	0xbd6d76d8	-0.057974666
163	0x3ceac992	0.02866057
164	0xbcfa58bc	-0.03055989
165	0xbd434dca	-0.047681607
166	0x3c92dd54	0.017927803
167	0xbda2a223	-0.079410814
168	0xbd1f8d55	-0.038953144
169	0xbcc5316e	-0.024071421
170	0x3ba6428f	0.0050738524
171	0xbc292801	-0.010324479
172	0xbc3b2978	-0.011423461
173	0xbd30d340	-0.043170214
174	0x3d12a2d9	0.035799835
175	0xbd8d6811	-0.06904615
176	0xbcb8a08e	-0.022537496
177	0xbd209d09	-0.03921226
178	0x3d14500b	0.036209147
179	0x3d964702	0.073377624
180	0xbb8e032c	-0.004333874
181	0x3c39f516	0.011349937
182	0x3d6205ac	0.05518119
183	0x3d5e1a34	0.054224208
184	0xbd918b2b	-0.07106622
185	0xbd8fedff	-0.07027816
186	0x3d0306fb	0.03198908
187	0x3d55819a	0.05212555
188	0xbe917969	-0.2841294
189	0xbdab804f	-0.08374082
190	0xbd897e2c	-0.067135185
191	0xbd8273ed	-0.06369767
192	0x3d5f9c1a	0.05459223
193	0xbd4b469a	-0.049627878
194	0x3d13cef1	0.036086027
195	0xbe14405e	-0.14477679
196	0xbcb155d7	-0.021647377
197	0x3d14e408	0.03635028
198	0xbd990443	-0.07471516
199	0xbd21ac6a	-0.039471067
200	0xbabae42e	-0.0014258677
201	0xbcd98d20	-0.026556551
202	0x3a9d08d0	0.0011980776
203	0xbc68726d	-0.0141874375
204	0x3cb2a06a	0.021805007
205	0x3d6fbbc4	0.058528677
206	0xbd24a37c	-0.040194973
207	0xbd151fe7	-0.036407378
208	0x3c579545	0.013158147
209	0xbc92aa18	-0.017903373
210	0x3c869375	0.016427735
211	0xbd4037a9	-0.04692808
212	0x3bbb124b	0.005708968
213	0x3c957608	0.018244758
214	0x3d815fc1	0.06317092
215	0xbccaf3af	-0.0247744
216	0xbcec6196	-0.028855126
217	0xbda81e0f	-0.08208858
218	0xbd03aa55	-0.032144863
219	0x3ba822a7	0.005131084
220	0x3ca8dcb7	0.020613058
221	0x3d58f195	0.052964766
222	0xbda79f63	-0.081846975
223	0x3cd38bcb	0.025823494
224	0xbd7b341d	-0.061328996
225	0x3cef20fc	0.029190533
226	0x3ce852bd	0.028359765
227	0xbd6ecb8e	-0.058299594
228	0x3c242d96	0.010020634
229	0xbd5973b2	-0.05308885
230	0x3bbcae7f	0.0057581062
231	0xbd35db75	-0.044398744
232	0x3cd4f318	0.025994822
233	0xbd8cc843	-0.068741344
234	0x3b45bbdf	0.0030171794
235	0xbcf26f44	-0.029594071
236	0x3ca66000	0.020309448
237	0x3daf67f0	0.085647464
238	0xbd9bc66f	-0.076062076
239	0xbd71926a	-0.058977522
240	0xbd02936e	-0.03187888
241	0xbd684063	-0.05670203
242	0xbdb736f6	-0.0894603
243	0xbd47e7e7	-0.048805144
244	0xbdad756e	-0.084696636
245	0x3c33f660	0.010984033
246	0xbd22277d	-0.03958844
247	0xbc90638b	-0.01762559
248	0x3d1e7118	0.038682073
249	0xbc3524d8	-0.0110561475
250	0xbd318e5e	-0.043348663
251	0xbc7cedb0	-0.0154375285
252	0xbc8cfc97	-0.017210288
253	0xbc94b37e	-0.018151995
254	0x3d36577b	0.04451702
255	0xbd989728	-0.07450706

linear2.bias f4 [256]
0	0xbdd383e6	-0.10327892
1	0xbd0446c5	-0.032294054
2	0xbd5443fb	-0.051822644
3	0xbdc55fd6	-0.0963742
4	0xbe1ee62b	-0.1551749
5	0xbd4629f5	-0.048379857
6	0xbdafb5fc	-0.08579633
7	0xbd788627	-0.060674813
8	0xbe04283a	-0.1290597
9	0xbd721ff6	-0.05911251
10	0xbd88f9d4	-0.06688276
11	0xbdb79379	-0.08963675
12	0xbc364c89	-0.011126646
13	0xbd0e4860	-0.03473699
14	0xbc910ba6	-0.01770575
15	0xbd993671	-0.07481087
16	0xbdbd2543	-0.09235623
17	0xbe69d98f	-0.22836898
18	0xbdaee004	-0.08538821
19	0xbd043568	-0.032277495
20	0xbda5bd1e	-0.08092712
21	0xbd8de8ab	-0.069291435
22	0xbd49ad0c	-0.049237296
23	0xbd39799f	-0.045282003
24	0xbe9e911b	-0.30970082
25	0xbbe5e64d	-0.0070159794
26	0x3c5ad822	0.013357194
27	0xbd9d224d	-0.07672558
28	0x3b9df065	0.004819917
29	0xbd7b5e2f	-0.061369117
30	0xbd3bc1eb	-0.04583923
31	0xbdf872fc	-0.121313065
32	0xbd564ccb	-0.05231933
33	0x3da45644	0.08024266
34	0xbd3dbb2a	-0.04632107
35	0xbe31b47a	-0.17354003
36	0xbd9abf07	-0.07555967
37	0xbde390e4	-0.1111162
38	0xbd4476ee	-0.047964983
39	0xbb94c0fe	-0.004539608
40	0xbd81265c	-0.063061446
41	0xbc485806	-0.012228018
42	0xbd4b0872	-0.0495686
43	0x3a4a9afc	0.0007728783
44	0xbd71f79b	-0.059074026
45	0xbd5f91cd	-0.054582406
46	0xbd0c6327	-0.034274247
47	0xbd98f18b	-0.07467946
48	0xbce5344c	-0.027979039
49	0xbaaed939	-0.0013339884
50	0xbdbca3e1	-0.09210945
51	0xbdca00ae	-0.09863411
52	0xbdda21e3	-0.10650995
53	0xbd8f07a5	-0.0698388
54	0x3caad099	0.02085142
55	0xbd7e4fa8	-0.062087685
56	0xbd674745	-0.056464452
57	0xbce64d49	-0.028113024
58	0x3b4a2025	0.0030841914
59	0xbd22f12e	-0.039780788
60	0xbd18aaaa	-0.037272133
61	0xbd38f0f3	-0.045151662
62	0x3c9e471a	0.019321013
63	0x3c920d4d	0.017828608
64	0xbd9b152c	-0.075723976
65	0xbdd5f974	-0.1044797
66	0xbda5f750	-0.08103812
67	0xbd0aee8a	-0.033918895
68	0xbdc22a59	-0.094807334
69	0xbdb19512	-0.08671011
70	0xbc82919c	-0.015938573
71	0xbd0eac93	-0.03483255
72	0xbdc2a337	-0.09503787
73	0x3ed19d25	0.40940204
74	0x3cdbae62	0.02681655
75	0xbbc3c910	-0.0059748963
76	0xbc42bdd4	-0.011886079
77	0xbda40b11	-0.08009923
78	0xbd793dee	-0.060850076
79	0xbda5153c	-0.08060691
80	0xbd03c302	-0.032168396
81	0xbcc5e2fb	-0.024156084
82	0xbb78efae	-0.0037984657
83	0xbd09d0a6	-0.03364625
84	0xbdc10f1c	-0.0942671
85	0xbd28d381	-0.04121733
86	0xbd8d6ecc	-0.069058985
87	0xbcb6302d	-0.022239769
88	0xbdb91de5	-0.09038905
89	0xbdd460d5	-0.10370032
90	0xbd81c63d	-0.06336639
91	0xbe8a7f6e	-0.27050346
92	0xbb808a6d	-0.0039227516
93	0xbd5d2a50	-0.05399543
94	0xbd185dcc	-0.037198827
95	0xbdaa5d4b	-0.083185755
96	0xbdd89e76	-0.10577099
97	0xbe1292fb	-0.14313881
98	0xbd85a25f	-0.065251105
99	0xbdeabe7f	-0.114621155
100	0xbd79d944	-0.060998216
101	0xbd8d20f0	-0.06891048
102	0xbcebc1be	-0.028778907
103	0xbdaa2955	-0.08308665
104	0xbd9297c4	-0.07157853
105	0xbdfc5ce4	-0.12322405
106	0xbdd383cb	-0.10327872
107	0xbd0d3621	-0.03447545
108	0xbc294141	-0.010330499
109	0xbd69a619	-0.05704317
110	0xbc5a673d	-0.013330278
111	0xbdbf21c2	-0.09332611
112	0x3be40a6c	0.00695925
113	0xbd8c3b81	-0.06847287
114	0xbd707d3b	-0.05871318
115	0x3d9cb0a0	0.07650876
116	0xbda9c86a	-0.08290179
117	0xbdd20c47	-0.10256248
118	0xbde5f956	-0.11229198
119	0xbd958b4c	-0.073019594
120	0xbde7c745	-0.113173045
121	0xbcc2239a	-0.023698617
122	0xbdb88f84	-0.090117484
123	0xbd7b1ae1	-0.06130493
124	0xbcebf0ba	-0.02880131
125	0xbc370e1a	-0.011172796
126	0xbdacdc41	-0.084404476
127	0xbd29a615	-0.041418154
128	0x3cf65a6f	0.030072419
129	0xbc8e1023	-0.017341679
130	0xbd87e75f	-0.066359274
131	0xbd427a22	-0.047479756
132	0x3c6fb8bc	0.014631446
133	0xbd91ef45	-0.07125715
134	0xbe0fb78e	-0.14034864
135	0xbc8862f4	-0.016648747
136	0xbdf18d3c	-0.117945164
137	0x3eda9e25	0.4269878
138	0xbe2b3718	-0.16720235
139	0xbe1447c2	-0.14480498
140	0xbda35650	-0.07975447
141	0xbda9418f	-0.082644574
142	0xbdbc6a4f	-0.09199964
143	0xbcd65385	-0.026162872
144	0xbdae6d89	-0.08516986
145	0xbdd583ab	-0.10425504
146	0xbda8122a	-0.082065895
147	0xbc87c986	-0.016575586
148	0x3e295384	0.16535765
149	0xbd0570d2	-0.032578297
150	0x3c6f42fa	0.014603371
151	0xbd2e041b	-0.042484384
152	0xbbadebf5	-0.0053076693
153	0xbd6fc222	-0.05853475
154	0xbdb6d238	-0.08926815
155	0xbd83e946	-0.06440978
156	0xbbdb4319	-0.0066913483
157	0xbe051966	-0.1299797
158	0xbda3e2ac	-0.080022186
159	0xbded1a0a	-0.11577232
160	0xbd7092c1	-0.058733705
161	0xbd7bfab4	-0.061518386
162	0xbd766114	-0.060151175
163	0xbcfd391b	-0.03091102
164	0xbdfbbcdf	-0.12291884
165	0xbde7aec4	-0.11312631
166	0xbdb3e037	-0.08783
167	0x3b80a1fd	0.0039255605
168	0xbd868bc6	-0.065696284
169	0xbdb4c271	-0.08826149
170	0xbdb84ff0	-0.08999622
171	0xbce6f900	-0.028194904
172	0xbca89ba4	-0.020582028
173	0xbdae3cd7	-0.08507698
174	0x3baba295	0.005237887
175	0xbd5802e4	-0.05273713
176	0xbd41ef1b	-0.04734717
177	0xbc85d48f	-0.016336707
178	0xbcf3a4e5	-0.029741714
179	0xbd5aa482	-0.053379543
180	0xbde7396e	-0.11290251
181	0x3daa01a5	0.08301095
182	0xbd5b3c92	-0.05352456
183	0xbc904617	-0.017611546
184	0xbcef058a	-0.029177446
185	0xbdf6b5d5	-0.120464005
186	0xbd9e2811	-0.07722486
187	0xbd983a32	-0.07432975
188	0xbd83c23e	-0.06433533
189	0xbd91dff8	-0.07122797
190	0xbd0ca1c7	-0.03433397
191	0xbdd294f6	-0.10282318
192	0xbd80d3cc	-0.06290397
193	0xbc059221	-0.008152516
194	0xbcc6dd70	-0.024275512
195	0xbcfb75e4	-0.030695863
196	0xbdfffd51	-0.12499488
197	0xbd4cc368	-0.04999104
198	0x3b84f2e5	0.0040572756
199	0xbd1b41c0	-0.0379045
200	0x3c4c6697	0.012475631
201	0xbdcdcfa9	-0.10049374
202	0xbd6693da	-0.056293346
203	0xbd8dc62e	-0.069225654
204	0xbd3d6c5e	-0.046245925
205	0xbca97afd	-0.020688528
206	0xbd8d96d3	-0.06913533
207	0xbe0577f5	-0.13034041
208	0xbdddd92c	-0.10832438
209	0xbca10712	-0.019656692
210	0xbe2cc580	-0.16872215
211	0xbdd04bf9	-0.10170741
212	0x3d0e0bf0	0.034679353
213	0xbda026cc	-0.078199
214	0xbd0f7452	-0.03502304
215	0xbd8f72fc	-0.070043534
216	0xbd8118cc	-0.06303558
217	0xbc2590a6	-0.010105288
218	0xbd770977	-0.06031176
219	0x3e831a00	0.25605774
220	0xbdf0da67	-0.11760407
221	0xbd95b370	-0.073096156
222	0xbd91b4d4	-0.07114568
223	0xbce30342	-0.027711514
224	0xbde5c48b	-0.11219128
225	0xbcce58a5	-0.025188753
226	0xbd93b7ee	-0.07212816
227	0xbd0ba562	-0.03409327
228	0x3cb80659	0.022463964
229	0xbbf0f555	-0.0073534646
230	0xbe5cc47f	-0.21559332
231	0x3d2f266b	0.042761248
232	0x3e7e7043	0.24847512
233	0xbda00f8f	-0.078154676
234	0x3cd85c4c	0.026411198
235	0x3ccb9d53	0.024855291
236	0xbc15d5e3	-0.009145233
237	0xbddb1259	-0.10696859
238	0xbdbf1be3	-0.09331491
239	0xbb065f9f	-0.0020503772
240	0xbcade6ba	-0.021228183
241	0xbd81e3f4	-0.06342307
242	0xbe014e82	-0.12627605
243	0xbbadfad5	-0.0053094425
244	0xbd9c9ae3	-0.0764673
245	0x3bb5f791	0.005553194
246	0xbd95131c	-0.072790354
247	0xbb344698	-0.0027507897
248	0xbd04fd29	-0.032467995
249	0xbddc4534	-0.10755387
250	0xbe017830	-0.12643504
251	0xbcbded7b	-0.023184529
252	0xbd82d914	-0.063890606
253	0xbda42906	-0.08015637
254	0x3c565317	0.013081334
255	0xbdfacde4	-0.12246302

linear3.weight f4 [1, 256]
0	0xbcef89eb	-0.02924057
1	0x3cd268d3	0.02568475
2	0x3ce8fd39	0.028441058
3	0x3c88b41d	0.016687447
4	0x39fdcf9e	0.00048410607
5	0xbca6dc94	-0.020368852
6	0x3bb0ce8b	0.0053957156
7	0xbccce9d9	-0.025013851
8	0x39e963bb	0.00044515528
9	0xbe08cc9e	-0.13359305
10	0x3c2ca754	0.010537941
11	0xbcd07028	-0.025444105
12	0x3ce2e515	0.027697125
13	0x3ae493dc	0.0017439085
14	0xbc4a099d	-0.012331394
15	0x3c37e745	0.011224573
16	0xbcbc9da5	-0.02302439
17	0xbe134aab	-0.14383952
18	0xbc2a6887	-0.010400898
19	0xbc700ac1	-0.014651001
20	0xbc45343b	-0.0120363785
21	0x3c37976e	0.011205537
22	0x3ceeb759	0.029140161
23	0xbc436c5c	-0.01192769
24	0x3cf7369f	0.030177413
25	0x3ca8638f	0.020555286
26	0x3d41b54b	0.047292035
27	0x3c3b35f0	0.011426434
28	0x3c90aef6	0.017661553
29	0x3c9cee96	0.019156735
30	0x3cf1efb6	0.029533248
31	0xbcb578e5	-0.022152374
32	0x3ad8d178	0.0016541919
33	0x3e4d2858	0.20034921
34	0x3c0991d6	0.008396586
35	0x3e82c614	0.25541747
36	0x3cbe4161	0.023224534
37	0xbe884815	-0.26617494
38	0x3c03a5e6	0.008035159
39	0x3bcf4667	0.0063255313
40	0x3c893077	0.016746743
41	0xbe402fe3	-0.18768267
42	0x3bffc093	0.007804939
43	0xbce1bfdf	-0.027557312
44	0x3b145c97	0.0022638196
45	0x3cf7b05d	0.030235464
46	0x3dbd0811	0.09230054
47	0x3cfc6109	0.030807989
48	0x3c6c6a0c	0.01442958
49	0x3d36db6e	0.04464286
50	0xbc02be5a	-0.007979954
51	0xbd569e69	-0.052397165
52	0x3aa65e84	0.0012692963
53	0x3a176c33	0.0005776316
54	0xbd8b4a08	-0.0680123
55	0xbc8882ef	-0.016663997
56	0xbbaa2942	-0.0051929066
57	0xbc1731e0	-0.0092282
58	0xbd0d3901	-0.03447819
59	0x3cd068df	0.025440631
60	0xbcf7cfe4	-0.030250497
61	0xbceb1775	-0.028697709
62	0xbb906376	-0.004406388
63	0xbad9d3aa	-0.0016618867
64	0xbc97a308	-0.018510357
65	0x3ccf4a02	0.025303844
66	0xbc316f5d	-0.010829774
67	0x3c61950e	0.013768448
68	0x3a975fa0	0.0011548884
69	0x3d120222	0.035646565
70	0xbbf442a4	-0.0074542332
71	0xb9503490	-0.00019856007
72	0xbc53429b	-0.012894298
73	0x3d9fbb91	0.07799447
74	0xba1c4591	-0.0005961294
75	0x3ce2145e	0.027597602
76	0xbc688a63	-0.01419315
77	0xbcb6a8a6	-0.022297215
78	0xbcf88136	-0.03033505
79	0x3cab1825	0.020885536
80	0xba7596c8	-0.00093684765
81	0x3c6ef8f2	0.01458572
82	0x3c8d752d	0.017267788
83	0x3c2b2a8c	0.010447156
84	0xbc97a5fa	-0.018511761
85	0xbc25f1d5	-0.010128458
86	0x3cda13fa	0.026620854
87	0xbc95436e	-0.01822063
88	0xba7b269e	-0.00095806445
89	0xbc46b6c6	-0.0121285375
90	0xbca65131	-0.020302387
91	0xbc1bac64	-0.00950155
92	0x3d0fa6d4	0.03507121
93	0x3c9812f6	0.018563729
94	0xba821b24	-0.0009926301
95	0xbd9113ce	-0.070838556
96	0xbbe686ea	-0.007035126
97	0x3cd111e1	0.02552122
98	0x3aa14a3c	0.0012305449
99	0xbc984146	-0.018585812
100	0xbcb5ebc8	-0.022207156
101	0xbcfc897c	-0.030827276
102	0xbaa75df0	-0.0012769084
103	0x3cabfd19	0.02099471
104	0x3b58fb01	0.0033108594
105	0x3cadac95	0.021200458
106	0xbcbd6283	-0.023118263
107	0x3cae981e	0.02131277
108	0xbcccca96	-0.024998944
109	0xbb8ee0bd	-0.004360287
110	0x3ceadc14	0.028669395
111	0xbb9574bd	-0.0045610354
112	0x3cceb3a4	0.025232144
113	0x3aba4cd1	0.0014213567
114	0xbcd91938	-0.026501283
115	0xbe5cdf08	-0.21569455
116	0x3c838bb5	0.016057828
117	0x3c6b1f18	0.014350675
118	0x3c9c95d5	0.019114414
119	0x3c1e4226	0.009659326
120	0xbe76e1df	-0.241096
121	0xbb9b13e9	-0.004732598
122	0x3b9fccb0	0.0048766956
123	0xbab47297	-0.0013767061
124	0x3ce39ae5	0.02778382
125	0xbc9c0652	-0.019045983
126	0x3a425f75	0.0007414737
127	0x3d0894d9	0.033345077
128	0x3cbcb11a	0.023033667
129	0x3cc7d3a7	0.024392916
130	0xbd305a3d	-0.043054808
131	0xbca3e0de	-0.020004686
132	0xba824dc1	-0.0009941385
133	0x3bce9b9f	0.0063051726
134	0x3d588676	0.052862607
135	0x3b8ff050	0.004392661
136	0x3d162049	0.036651883
137	0xbe7ce967	-0.24698411
138	0xbdcdb3bd	-0.10044048
139	0x3c09b32b	0.008404533
140	0xbabeecc7	-0.0014566415
141	0xbcc4c950	-0.024021775
142	0xbb64eb00	-0.003493011
143	0x3c9c784e	0.019100334
144	0xbbbd3339	-0.0057739285
145	0xbbdd0dbe	-0.006746023
146	0x3c4f8f1e	0.012668399
147	0x3b383b39	0.0028111471
148	0xbde0cc45	-0.10976461
149	0x3cda48c6	0.02664603
150	0x3c4b328a	0.012402186
151	0x3cc7811e	0.02435356
152	0x3d159c81	0.036526207
153	0x3cdf2b45	0.027242312
154	0x3c42c2c3	0.011887255
155	0xbcc0a94d	-0.023518229
156	0xbca53468	-0.02016659
157	0x3cf73c17	0.03018002
158	0x3b4d84cc	0.003135967
159	0xbbbb1386	-0.0057091145
160	0xbe77e5c1	-0.24208738
161	0xbcdd638b	-0.027025005
162	0x3cf06f8e	0.029350068
163	0xbc2042cf	-0.009781553
164	0x3ce50ed9	0.027961181
165	0xbd1db63c	-0.03850387
166	0x3c389e27	0.011268175
167	0xbcae61cb	-0.021286866
168	0x3ce4378b	0.027858516
169	0x3ce7d3dc	0.028299265
170	0xba8affe4	-0.0010604826
171	0x3b4859fd	0.0030571215
172	0xbd294655	-0.04132684
173	0x3ceeb810	0.029140502
174	0xbcc5e6c3	-0.024157887
175	0xbcb1f365	-0.021722505
176	0x3b147124	0.0022650445
177	0x3cfd8513	0.030947244
178	0x3c791151	0.015201882
179	0x3b8931b8	0.004186835
180	0x3c5fe80e	0.013666166
181	0x3dac7c7e	0.084221825
182	0x3c60af51	0.013713674
183	0x3c08268f	0.008309974
184	0xbcebe48f	-0.028795509
185	0x38f0b970	0.00011478632
186	0xbc17cd7c	-0.0092653
187	0x3c11ca4b	0.008898328
188	0x3d12e291	0.0358606
189	0x3ca5d983	0.02024532
190	0x3bd069a3	0.006360249
191	0x3c85c9d5	0.016331593
192	0xbc42d546	-0.011891669
193	0x3c24e00f	0.010063185
194	0xbc38bc8e	-0.011275424
195	0xbc4c822b	-0.012482206
196	0x3bbc9191	0.0057546576
197	0x3e010f74	0.12603551
198	0x3bdd51fc	0.006754158
199	0xbb397013	-0.0028295561
200	0xbeb50ce6	-0.35361403
201	0xbc0e7bfd	-0.008696553
202	0x3c710143	0.0147097735
203	0x3cb489c4	0.022038348
204	0xbc87628f	-0.016526489
205	0xbb595155	-0.003316005
206	0x3d02866d	0.03186648
207	0x3bb3d082	0.0054875026
208	0x3c9c9210	0.019112617
209	0x3ce1a4d8	0.027544424
210	0xbeac486a	-0.33648998
211	0xbc121b8e	-0.008917702
212	0x3d3e97ee	0.04653161
213	0x3c06ca7d	0.008226988
214	0xbc991b34	-0.01868973
215	0xb998082c	-0.00028997788
216	0xbcede7f4	-0.029041268
217	0x3b9b7609	0.0047442955
218	0xbc81860b	-0.015810987
219	0x3e28f5ce	0.16500017
220	0x3cbbe14e	0.022934582
221	0xbb9dfc57	-0.004821341
222	0x3cb37f21	0.021911206
223	0x3c51d0c4	0.012806121
224	0xbb90101d	-0.004396452
225	0x3ca8bbe2	0.020597402
226	0x3ca814c0	0.020517707
227	0x3b9778e6	0.0046225665
228	0xbc45185e	-0.012029735
229	0x3cc73195	0.024315635
230	0x3bda79d1	0.0066673537
231	0xbc413cd9	-0.011794292
232	0x3da954c6	0.082681224
233	0x3c80a1a0	0.015702069
234	0xbbee281b	-0.0072679645
235	0x3d0eeabe	0.034891836
236	0xbab2abad	-0.0013631486
237	0xbbfae82a	-0.0076570706
238	0xbbf80485	-0.007568898
239	0x3c57b5ea	0.01316593
240	0x3ca217a0	0.019786656
241	0x3c618805	0.01376534
242	0xbb12bcb7	-0.0022390315
243	0xbd7d97da	-0.061912395
244	0x3c8ef13f	0.01744902
245	0x3eaf8e7e	0.342884
246	0xbcb20680	-0.021731615
247	0xbc908999	-0.017643737
248	0x3bf39d90	0.0074345544
249	0xbc5e8292	-0.013580935
250	0xbc839fa6	-0.016067337
251	0xbc6fdad2	-0.014639573
252	0x3c0ed5c1	0.008717955
253	0xbcc87d41	-0.024473788
254	0x3c0ccc17	0.008593581
255	0x3ce36e0d	0.027762437
